…
..................................... 50000 ............................................................Shuffling data and labels
Saving preprocessed dataset
Delimiting segment of data.
Delimiting segment of data.
Model: "encoder"
_________________________________________________________________
 Layer (type)                Output Shape              Param #   
=================================================================
 input_2 (InputLayer)        [(None, 28, 28, 1)]       0         
                                                                 
 conv2d (Conv2D)             (None, 28, 28, 4)         40        
                                                                 
 batch_normalization (Batch  (None, 28, 28, 4)         16        
 Normalization)                                                  
                                                                 
 conv2d_1 (Conv2D)           (None, 28, 28, 4)         148       
                                                                 
 batch_normalization_1 (Bat  (None, 28, 28, 4)         16        
 chNormalization)                                                
                                                                 
 max_pooling2d (MaxPooling2  (None, 14, 14, 4)         0         
 D)                                                              
                                                                 
 spatial_dropout2d (Spatial  (None, 14, 14, 4)         0         
 Dropout2D)                                                      
                                                                 
 conv2d_2 (Conv2D)           (None, 14, 14, 8)         296       
                                                                 
 batch_normalization_2 (Bat  (None, 14, 14, 8)         32        
 chNormalization)                                                
                                                                 
 conv2d_3 (Conv2D)           (None, 14, 14, 8)         584       
                                                                 
 batch_normalization_3 (Bat  (None, 14, 14, 8)         32        
 chNormalization)                                                
                                                                 
 max_pooling2d_1 (MaxPoolin  (None, 7, 7, 8)           0         
 g2D)                                                            
                                                                 
 spatial_dropout2d_1 (Spati  (None, 7, 7, 8)           0         
 alDropout2D)                                                    
                                                                 
 conv2d_4 (Conv2D)           (None, 7, 7, 16)          1168      
                                                                 
 batch_normalization_4 (Bat  (None, 7, 7, 16)          64        
 chNormalization)                                                
                                                                 
 conv2d_5 (Conv2D)           (None, 7, 7, 16)          2320      
                                                                 
 batch_normalization_5 (Bat  (None, 7, 7, 16)          64        
 chNormalization)                                                
                                                                 
 conv2d_6 (Conv2D)           (None, 7, 7, 16)          2320      
                                                                 
 batch_normalization_6 (Bat  (None, 7, 7, 16)          64        
 chNormalization)                                                
                                                                 
 max_pooling2d_2 (MaxPoolin  (None, 4, 4, 16)          0         
 g2D)                                                            
                                                                 
 spatial_dropout2d_2 (Spati  (None, 4, 4, 16)          0         
 alDropout2D)                                                    
                                                                 
 conv2d_7 (Conv2D)           (None, 4, 4, 32)          4640      
                                                                 
 batch_normalization_7 (Bat  (None, 4, 4, 32)          128       
 chNormalization)                                                
                                                                 
 conv2d_8 (Conv2D)           (None, 4, 4, 32)          9248      
                                                                 
 batch_normalization_8 (Bat  (None, 4, 4, 32)          128       
 chNormalization)                                                
                                                                 
 conv2d_9 (Conv2D)           (None, 4, 4, 32)          9248      
                                                                 
 batch_normalization_9 (Bat  (None, 4, 4, 32)          128       
 chNormalization)                                                
                                                                 
 max_pooling2d_3 (MaxPoolin  (None, 2, 2, 32)          0         
 g2D)                                                            
                                                                 
 spatial_dropout2d_3 (Spati  (None, 2, 2, 32)          0         
 alDropout2D)                                                    
                                                                 
 conv2d_10 (Conv2D)          (None, 2, 2, 64)          18496     
                                                                 
 batch_normalization_10 (Ba  (None, 2, 2, 64)          256       
 tchNormalization)                                               
                                                                 
 conv2d_11 (Conv2D)          (None, 2, 2, 64)          36928     
                                                                 
 batch_normalization_11 (Ba  (None, 2, 2, 64)          256       
 tchNormalization)                                               
                                                                 
 conv2d_12 (Conv2D)          (None, 2, 2, 64)          36928     
                                                                 
 batch_normalization_12 (Ba  (None, 2, 2, 64)          256       
 tchNormalization)                                               
                                                                 
 max_pooling2d_4 (MaxPoolin  (None, 1, 1, 64)          0         
 g2D)                                                            
                                                                 
 spatial_dropout2d_4 (Spati  (None, 1, 1, 64)          0         
 alDropout2D)                                                    
                                                                 
 flatten (Flatten)           (None, 64)                0         
                                                                 
 encoded (LayerNormalizatio  (None, 64)                128       
 n)                                                              
                                                                 
=================================================================
Total params: 123932 (484.11 KB)
Trainable params: 123212 (481.30 KB)
Non-trainable params: 720 (2.81 KB)
_________________________________________________________________
Model: "classifier"
_________________________________________________________________
 Layer (type)                Output Shape              Param #   
=================================================================
 input_3 (InputLayer)        [(None, 64)]              0         
                                                                 
 dense (Dense)               (None, 64)                4160      
                                                                 
 dropout (Dropout)           (None, 64)                0         
                                                                 
 dense_1 (Dense)             (None, 64)                4160      
                                                                 
 dropout_1 (Dropout)         (None, 64)                0         
                                                                 
 classified (Dense)          (None, 10)                650       
                                                                 
=================================================================
Total params: 8970 (35.04 KB)
Trainable params: 8970 (35.04 KB)
Non-trainable params: 0 (0.00 Byte)
_________________________________________________________________
Model: "decoder"
_________________________________________________________________
 Layer (type)                Output Shape              Param #   
=================================================================
 input_4 (InputLayer)        [(None, 64)]              0         
                                                                 
 dense_2 (Dense)             (None, 1568)              101920    
                                                                 
 reshape (Reshape)           (None, 7, 7, 32)          0         
                                                                 
 conv2d_13 (Conv2D)          (None, 7, 7, 64)          18496     
                                                                 
 up_sampling2d (UpSampling2  (None, 14, 14, 64)        0         
 D)                                                              
                                                                 
 spatial_dropout2d_5 (Spati  (None, 14, 14, 64)        0         
 alDropout2D)                                                    
                                                                 
 batch_normalization_13 (Ba  (None, 14, 14, 64)        256       
 tchNormalization)                                               
                                                                 
 conv2d_14 (Conv2D)          (None, 14, 14, 32)        18464     
                                                                 
 up_sampling2d_1 (UpSamplin  (None, 28, 28, 32)        0         
 g2D)                                                            
                                                                 
 spatial_dropout2d_6 (Spati  (None, 28, 28, 32)        0         
 alDropout2D)                                                    
                                                                 
 batch_normalization_14 (Ba  (None, 28, 28, 32)        128       
 tchNormalization)                                               
                                                                 
 conv2d_15 (Conv2D)          (None, 28, 28, 1)         289       
                                                                 
 decoded (Rescaling)         (None, 28, 28, 1)         0         
                                                                 
=================================================================
Total params: 139553 (545.13 KB)
Trainable params: 139361 (544.38 KB)
Non-trainable params: 192 (768.00 Byte)
_________________________________________________________________
Model: "model"
__________________________________________________________________________________________________
 Layer (type)                Output Shape                 Param #   Connected to                  
==================================================================================================
 input_1 (InputLayer)        [(None, 28, 28, 1)]          0         []                            
                                                                                                  
 encoder (Functional)        (None, 64)                   123932    ['input_1[0][0]']             
                                                                                                  
 classifier (Functional)     (None, 10)                   8970      ['encoder[0][0]']             
                                                                                                  
 decoder (Functional)        (None, 28, 28, 1)            139553    ['encoder[0][0]']             
                                                                                                  
==================================================================================================
Total params: 272455 (1.04 MB)
Trainable params: 271543 (1.04 MB)
Non-trainable params: 912 (3.56 KB)
__________________________________________________________________________________________________
…
